checkpoint.pth (torch_old, 28391 bytes, 6 tensors)

fc1.weight f4 [64, 37]
000000 18 c6 d3 bb 2f b5 90 3d 72 82 87 3d 8a 43 fe bd
       -0.0064628236 0.07065808 0.06616677 -0.12415226
000010 9c a8 3b be 4a 1b ed 3d c4 eb 99 bd 3e 11 5e 3e
       -0.18326038 0.115774706 -0.07515672 0.21686265
000020 8d 69 10 bc 12 74 cb bd e8 3e 3e 3c 55 91 1e 3c
       -0.008814228 -0.09934248 0.011611678 0.009678205
000030 bf 2c 39 3d 0f 81 09 3e 93 e1 38 be d0 c1 cb bd
       0.04520869 0.13428138 -0.180548 -0.09949076
000040 b3 4a c0 3d 28 09 51 3d d8 a9 29 3e 11 48 0b 3d
       0.09389248 0.051034123 0.16568696 0.034004275
000050 76 5d 59 3d b7 53 ac bd fb 8e 5f bd 21 35 73 be
       0.053067647 -0.08414405 -0.054579716 -0.23750736
000060 8c b1 83 be a0 47 e7 bd a6 94 49 3e d6 c3 36 3e
       -0.25721395 -0.11292958 0.19685611 0.17848143
000070 a2 b2 a0 bd f1 70 05 3e 7c 85 6c 3d f7 3c 90 3d
       -0.078465715 0.13031365 0.057744488 0.07042878
000080 61 fd 57 3e 7c 28 38 be de 8d 29 bf 95 dd 8a 3d
       0.2109275 -0.17984194 -0.662321 0.06780545
000090 e8 61 95 3d 56 b7 0d 3e b3 7d 19 3e e0 8c df be
       0.07294065 0.13839468 0.14989357 -0.43662167
0000a0 0d 7b 66 be 6e 84 95 3d 22 6d 11 3d 2c a3 82 3d
       -0.22507878 0.073006496 0.035504468 0.06378779
0000b0 b5 4b 81 3d 58 ec ea bd 7b ce e3 bd bd 49 07 3d
       0.06313268 -0.1147086 -0.111233674 0.033029307
0000c0 b9 a9 b6 be 8b a4 9e 39 4c 16 48 be 2c ff 60 be
       -0.35676363 0.00030258702 -0.19539756 -0.2197234
0000d0 88 ed 68 3e 40 f4 4a be 13 d3 2a 3d 52 e3 7b 3d
       0.22746861 -0.19819736 0.041705202 0.061496086
0000e0 5a 4c d1 bd 9e 1c e4 3d 83 eb 89 be 4a cf 6c be
       -0.10219641 0.11138271 -0.26937494 -0.2312595
0000f0 cd ac 9f be a5 92 77 3e 39 9d a4 be 5c e9 ba 3e
       -0.31186524 0.24177034 -0.321512 0.36506164
000100 77 71 24 be 78 52 0e 3c ef da 38 3c 33 aa 89 bd
       -0.16058908 0.008686654 0.011282667 -0.06721916
000110 0a bd 08 bf 7e 0d c3 bd f3 0b 39 3e 20 87 3d be
       -0.5341345 -0.09524058 0.18070965 -0.18508577
000120 c8 ad 30 bd 29 81 8d bc 94 08 0e 3e 1f 0b 6f 3b
       -0.04313448 -0.017273502 0.1387046 0.0036475135
000130 a4 2f 93 3d bf 3c 0e 3e 8f 91 59 be 29 6a f5 3c
       0.07186821 0.1389036 -0.21246932 0.029957848
000140 e5 41 55 3d e5 2f 33 be a5 e5 f8 3d 59 3d 16 bb
       0.052064795 -0.17498739 0.12153176 -0.002292475
000150 b2 1f 13 3e f9 0a 2c be 5e bf 43 bd 59 93 26 3e
       0.1436756 -0.1680106 -0.047789924 0.16267146
000160 76 56 51 3c da 59 06 3e e6 59 72 3d 62 af 94 bd
       0.012776962 0.13120213 0.059167765 -0.07260014
000170 1e 26 68 3d 2a 9a ec bc db ad 94 bd 6c 87 9c bd
       0.056676976 -0.028882105 -0.07259723 -0.07643017
000180 25 ac cf 3d 1c dc 97 3d e2 5c 30 3e 5c d9 58 bd
       0.10140256 0.074150294 0.17222932 -0.052941665
000190 de 51 40 3e 4c db 99 bd 2e 6e 57 3e 75 fa 5e 3e
       0.1878123 -0.07512531 0.21038124 0.2177523
0001a0 ce 3a 05 be a8 5f a4 bd 46 ab 83 3d a9 d8 98 3e
       -0.13010713 -0.080260575 0.06429152 0.298528
0001b0 8c 40 1b 3f 4e f2 a9 ba 7d 41 c2 3c 6d 96 46 bc
       0.60645366 -0.0012965889 0.023712868 -0.012120825
0001c0 cf 40 7c 3e 49 0e 8c bd 67 f6 12 3d d4 e6 bf 3d
       0.24634098 -0.06838662 0.03587952 0.09370199
0001d0 b4 c2 a7 3e db 4d a4 bd 5a e8 c2 be 80 54 4d be
       0.32765734 -0.08022662 -0.38067895 -0.20051765
0001e0 ca 1d d5 be c1 dd 23 3e ba af 72 3d 79 bc d3 bd
       -0.4162429 0.16002561 0.059249617 -0.10338683
0001f0 38 c5 7d 3d 04 f9 87 bd 02 e6 1a be c8 f4 2e 3b
       0.06195566 -0.06639293 -0.15126804 0.0026696194
000200 3c 68 20 3e d0 21 10 3b 73 e1 52 bc 6c 38 51 3e
       0.15664762 0.002199281 -0.012871134 0.2043168
000210 6b 16 67 3d d5 24 94 3c 45 dc 06 3e 7c 51 bf 3c
       0.056417864 0.01808397 0.13169964 0.023354284
000220 a1 d3 5c 3c 0e eb bd 3d 07 ae eb bd 97 82 02 3e
       0.013478191 0.09273349 -0.115078025 0.12745129
000230 dd f2 99 3d b0 95 e6 bd e7 07 34 bd e5 42 ca 3d
       0.075170256 -0.112590194 -0.04395285 0.0987604
000240 8c 90 1e 3e 13 96 99 3e 27 db 0d 3e b6 13 bb 3c
       0.15484828 0.2999731 0.13853131 0.022836547
000250 96 2d 63 3e f4 88 3a 3e 8e 31 0f bd 3d cd d4 bd
       0.22185358 0.18216306 -0.03495937 -0.103907086
000260 41 aa e2 bd dc 9e 26 3d c4 7f 49 be 9f 48 8a bd
       -0.110676296 0.040678844 -0.19677645 -0.067521326
000270 bd b7 44 be 8d 9a 46 be 01 19 65 3d 80 3e d6 bd
       -0.19210716 -0.19394894 0.05593205 -0.1046114
000280 28 c9 be 3a 77 04 65 3e b9 36 e7 bd 4b 2a 99 3e
       0.0014555799 0.22364984 -0.112897344 0.2991508
000290 f7 e7 68 be f5 86 01 3d 48 98 2a be 82 cd a1 be
       -0.22744738 0.031622846 -0.16659653 -0.31602103
0002a0 84 da 83 be f9 a1 1d 3a d6 6e 91 3d 42 4f 03 3e
       -0.25752652 0.00060132105 0.071012184 0.12823203
0002b0 2a f7 85 3c 7a 65 88 bd 42 42 3a 3e 24 2f 89 3e
       0.016353209 -0.0665998 0.18189338 0.26793778
0002c0 8c 5c 7e 3e 17 fb 15 3e 12 f7 c0 3b a3 09 a2 3d
       0.24839991 0.14646564 0.005888828 0.07911994
0002d0 76 04 1c bc 5c 8a c2 bd a2 e1 70 bd 2a 16 dd bd
       -0.009522548 -0.09499046 -0.05880893 -0.10795243
0002e0 a3 16 71 bd 5b 0d 3d 3e 78 ba 1a be e8 ab 92 bd
       -0.05885948 0.18462126 -0.15110195 -0.07161695
0002f0 2b ac 81 bd b3 79 83 be 1b c9 56 3e 18 c9 96 be
       -0.063316666 -0.25678787 0.20975153 -0.29450297
000300 72 1a a1 be 11 91 7f be 94 71 20 bf 5e 36 22 be
       -0.3146549 -0.24957682 -0.62673306 -0.15841052
000310 7c ed 0d 3d 82 8c 28 3e 95 e3 3f 3e 6f a7 34 be
       0.03465031 0.1645985 0.1873916 -0.17641996
000320 e5 aa ae 3c 23 41 d8 bd 63 41 0e 3e 49 2c 99 3c
       0.021321723 -0.10559299 0.1389213 0.018697875
000330 bc b7 dd 3b 82 81 33 3d 91 64 a1 3c 1d 76 2c 3d
       0.0067662876 0.04382468 0.019701274 0.04210483
000340 33 d6 69 bd fc cd d6 3d 5b ea 57 3d 4a d3 97 bd
       -0.057089042 0.10488507 0.052713733 -0.07413347
000350 31 bb da bd 56 32 91 3e 06 95 27 3e e5 a9 56 3d
       -0.10680235 0.28358716 0.16365442 0.052408118
000360 6f c3 34 3e 33 51 37 bd 67 4d 0a 3e 37 af a0 3d
       0.17652677 -0.044755172 0.13506089 0.078459196
000370 2e 30 a6 bd d5 31 bc 3d d4 d0 90 bd e1 ea cc bc
       -0.08114658 0.09189192 -0.07071081 -0.025014343
000380 63 67 ea 3b b3 e9 e6 bd f9 fa f1 3c c1 89 73 3e
       0.007153438 -0.11275043 0.029538618 0.23783018
000390 79 6c 43 3e 7f ad d8 3d c3 e8 a0 3d e7 7f 40 be
       0.19084348 0.10579967 0.07856896 -0.18798791
0003a0 ed a7 35 3e 51 01 4d 3d 38 e7 2b 3d 44 d5 14 bd
       0.1773984 0.050050084 0.041968554 -0.0363362
0003b0 e7 8a 9c be 65 6d 1e 3e fb 93 b3 bc 44 bf 1a 3d
       -0.30574724 0.15471418 -0.021921149 0.03778006
0003c0 55 ab 69 3c fa d7 2d be 74 19 be 3e 64 49 ce be
       0.01426204 -0.1697692 0.37128794 -0.40290368
0003d0 7d 76 c7 bd 8b 88 8d bd 53 fa 48 bf 5d ea 09 3d
       -0.09739397 -0.06910809 -0.78506964 0.033670772
0003e0 c0 99 bf bc 4e 50 8a 3d 53 1e 15 3d 46 bd b4 3d
       -0.023388743 0.06753598 0.036405873 0.088251635
0003f0 c6 a6 41 3c 60 ba 43 3e b1 8a 80 3d e8 47 f7 3c
       0.011819547 0.19114065 0.06276453 0.030185655

fc1.bias f4 [64]
000000 e4 86 2f 3e d3 15 46 be 6b df d0 bd ff bd 0c bc
       0.171413 -0.19344263 -0.101988636 -0.0085902205
000010 80 6a 21 3e 48 f5 92 3c dc e7 05 3e 0a b8 14 3d
       0.15763283 0.017939225 0.13076729 0.036308326
000020 a0 1a c3 bc 94 03 4b 3e 13 02 2f 3e 8d 11 27 3c
       -0.023816407 0.19825584 0.17090635 0.0101970555
000030 88 c5 ab bd bb 7a bf bd 4e d8 a8 bc 95 d0 fc 3c
       -0.083872855 -0.09349581 -0.020610955 0.030861178
000040 b9 a6 82 3e 41 ab 10 be 2b 30 ed 3d 97 25 2d bd
       0.25517824 -0.14127828 0.11581453 -0.042272177
000050 cf f6 b4 3d 95 c6 a0 3d 74 d8 17 3c 99 ff 11 be
       0.088361375 0.078503765 0.009267915 -0.14257659
000060 a4 13 41 3d d6 a8 95 bd b3 69 26 3e aa 81 72 bd
       0.04713787 -0.073075935 0.16251259 -0.05920569
000070 d5 33 20 3e 66 9b b3 bc 65 66 1d be f8 6c a2 3d
       0.15644772 -0.021924686 -0.15371092 0.079309404
000080 50 61 6c 3d 4f f6 0d 3e 6c f6 95 3e 0d 54 b5 3d
       0.057709992 0.1386349 0.29289567 0.08853922
000090 4b 89 99 3d 5b b2 d8 bd c9 41 a3 bd da 5a 9c 3d
       0.0749689 -0.105808936 -0.07971532 0.07634516
0000a0 69 5f 00 3d eb d0 8d bd 2d ca 64 3d 39 19 81 3d
       0.03134099 -0.069246136 0.055856872 0.06303639
0000b0 90 ce 66 bd 3e cc 08 3e bd 23 94 3e 24 10 c1 3c
       -0.056349337 0.13359162 0.28933516 0.023567267
0000c0 8e ba 0a 3d ac c1 92 bd 07 40 f2 bd 5b 85 31 3e
       0.03386932 -0.07165846 -0.118286185 0.17336027
0000d0 e5 20 bc 3d 23 81 2d bc 60 95 5e be 08 d3 23 3e
       0.09185962 -0.010589871 -0.2173667 0.15998471
0000e0 6c 77 18 bd f3 c4 99 bd 1a e2 5a 3e db b9 eb bd
       -0.037223265 -0.07508268 0.21375313 -0.115100585
0000f0 46 4b b6 3d 5a 83 65 3e 80 d1 a1 bc ef 38 12 3c
       0.08901076 0.22413388 -0.019753218 0.008924707

fc2.weight f4 [64, 64]
000000 e8 0e b4 3d ab e7 d2 3c b4 01 c3 bd 96 c7 9e 3c
       0.08791906 0.025745234 -0.09521809 0.01938228
000010 2c f2 63 be 37 56 bb bd 67 59 96 be e9 19 d9 bd
       -0.2226035 -0.091473036 -0.29365084 -0.10600645
000020 26 a0 fe bd 09 1d 9c 3d a2 61 87 39 b6 a7 9f 3c
       -0.1243289 0.076227255 0.0002582195 0.01948915
000030 e9 d8 a1 3d 6d a8 05 3e cc ff 6b bd 92 1f 2d be
       0.079027005 0.1305253 -0.057616994 -0.16906574
000040 1f 84 29 3e d1 f3 89 be 36 5b c2 ba 02 62 3e 3e
       0.16554306 -0.2694383 -0.0014828208 0.18592075
000050 a5 2f 4b 3d 16 c7 6b be 9a 3f a9 be a9 24 1d 3e
       0.049605984 -0.23025164 -0.33056337 0.15346016
000060 b5 81 34 bd cf d9 00 be 61 4e 89 be 86 32 4b be
       -0.04406901 -0.12583087 -0.2681761 -0.19843492
000070 52 9b 7c be dc c2 58 be e0 f7 92 be 10 e2 2c be
       -0.24668625 -0.21168083 -0.2870474 -0.16883111
000080 17 bb 2e 3e fd a9 9b bd b2 29 c4 bd f5 db 21 be
       0.17063557 -0.07600782 -0.09578265 -0.15806563
000090 c4 71 e6 3c ae f5 86 bd 00 fd 8d be b2 5d b0 bd
       0.02813042 -0.065898284 -0.27732086 -0.08611621
0000a0 34 5c 07 bc 7f a3 ee 3d cc 0f 4d bd 3b 24 c2 be
       -0.008261729 0.11652278 -0.050063893 -0.37918267
0000b0 27 7f 48 3c a4 15 cc bd 89 86 b8 bd 9f f6 26 bd
       0.012237347 -0.09965065 -0.090100355 -0.04076254
0000c0 65 33 53 3d f3 d2 05 3e f8 84 ab be 7e 12 d0 bd
       0.051562686 0.13068752 -0.33499885 -0.10159777
0000d0 fc 4a 3f 3e cb 0a 70 be b8 a2 08 bd 06 5b 9b bd
       0.18680948 -0.23441617 -0.033358306 -0.07585721
0000e0 88 0e 1a be dc 70 e3 3d 09 e9 3e bd 42 02 03 3d
       -0.15044606 0.111055106 -0.04660896 0.031984575
0000f0 05 2e b9 be 9c fb ec bc e6 53 ab be b6 81 b6 3c
       -0.36167923 -0.02892857 -0.33462447 0.022278648
000100 f5 98 42 3e 64 0d 48 3e 8e 11 7e be 56 f0 a3 be
       0.19003661 0.19536358 -0.24811384 -0.320193
000110 3d a2 fa 3c fd e1 08 be e1 c1 b7 3e 8b e4 9f be
       0.03059494 -0.13367458 0.35890105 -0.31229052
000120 e1 55 8e be 8a 06 66 3d 4b 9e b5 bc 1f 52 89 bd
       -0.27799895 0.05615858 -0.022170207 -0.067051165
000130 be 5d ad be 5c 57 ec bd 0a c2 93 bd 42 c9 5d bd
       -0.33860582 -0.115401 -0.072147444 -0.054147013
000140 0d f3 51 bc 5c 6a 4d be ea f1 36 be 0a 3d e0 bb
       -0.0128142955 -0.20060104 -0.1786572 -0.006843214
000150 fe f2 d8 3d 30 99 5c be bc d4 26 3e e5 d1 ba 3c
       0.10593222 -0.21542811 0.16292089 0.022805164
000160 0d db a2 bd 7b 42 b0 bd 79 a7 a3 bd de 89 7c be
       -0.07951937 -0.0860643 -0.07990927 -0.24661967
000170 b6 0f 14 3d c5 7a 8e 3b 61 47 71 be aa 2d f1 bd
       0.036147796 0.0043481314 -0.23562385 -0.11776288
000180 91 3a 57 3c 6a 64 09 3d 8d 27 90 3d 50 c9 bb bd
       0.013136522 0.033543028 0.07038794 -0.09169257
000190 68 46 32 3d ea 5d 97 3d 7a ad a2 bd 28 19 38 be
       0.043524176 0.073909596 -0.07943244 -0.17978346
0001a0 ac 4d 3f be 61 92 27 bd d1 c4 e2 bd 29 73 9d bb
       -0.18681973 -0.040911082 -0.11072696 -0.004804988
0001b0 83 4c 35 3d e0 b5 66 be e6 4c 44 3d 33 50 1d be
       0.04426242 -0.22530317 0.0479249 -0.15362625
0001c0 ac b9 a5 3d a6 25 a0 3d 60 51 26 be 81 ef 9a 3d
       0.08092055 0.07819681 -0.1624198 0.07565213
0001d0 a8 29 c3 3d 8e 17 13 bd d7 da d9 3d 66 45 99 3c
       0.0952943 -0.035911135 0.106374435 0.01870985
0001e0 b7 9b 26 be ba 61 30 be c9 01 07 3e 7f 4b 5e 3e
       -0.16270338 -0.1722478 0.13184275 0.21708487
0001f0 74 a2 4b bd 9c 2b 28 be 81 c8 66 be 29 b4 15 3e
       -0.049715474 -0.16422886 -0.22537424 0.14619507
000200 f9 95 eb 3d 69 54 19 be 1c 57 51 3d c7 4f 5c bd
       0.115032144 -0.14973606 0.051108465 -0.05378702
000210 97 05 19 be e6 bd 0c bd 2b 9c bc bd 3e 48 b5 bd
       -0.14943539 -0.03436079 -0.09209474 -0.0885167
000220 21 c5 ae bd c7 13 a6 3d 13 9e 5d 3d dd 83 02 3e
       -0.08533693 0.08109241 0.05410583 0.12745614
000230 8e 6a b7 bd e6 e2 19 3d fb cd 1c bd b4 3a 88 be
       -0.089558706 0.037569903 -0.038282376 -0.26607287
000240 64 13 64 bd f4 3d a7 3e a8 de 9e be c1 70 d6 3c
       -0.055682555 0.32664454 -0.31029248 0.026176812
000250 6e 5c ea bd fd 1b 5c 3e 55 a0 df 3d a6 bb 13 3e
       -0.11443411 0.21495052 0.10919253 0.14427051
000260 c5 8a f1 3c d1 b0 49 bd d7 99 82 3d 78 52 af bc
       0.029485116 -0.04924089 0.06376999 -0.021401629
000270 99 b7 30 3d 37 1b 4c 3d 54 fd a0 bd c2 28 34 3e
       0.043143842 0.04983064 -0.078608185 0.17593673
000280 ad 95 8c bd 13 db b4 3c 52 31 33 be f4 7e 6a be
       -0.06864486 0.022077119 -0.17499283 -0.22899991
000290 2a 52 57 3e cd c5 fe 3b 89 58 86 be cf 1d 5f bc
       0.21027437 0.0077750445 -0.26239422 -0.013617947
0002a0 25 f4 51 bc 41 cb 79 bd 23 19 b1 bd 50 35 a6 3d
       -0.012814556 -0.060984854 -0.086473726 0.08115637
0002b0 c6 c0 8d 3c fc 2f 1a be ea 0e 21 3c a4 9a 5c 3e
       0.017303836 -0.15057367 0.009830216 0.21543366
0002c0 49 60 98 bc b5 13 f1 be 22 a7 23 3d b9 2b 16 3e
       -0.0186006 -0.47085348 0.039954312 0.14665116
0002d0 e6 76 c5 bd 53 59 17 3d f2 81 4a bd 3c 99 f6 bc
       -0.09641819 0.03695042 -0.04944033 -0.030102365
0002e0 e7 4c 6c 3e 50 72 d1 3d 9b 34 9e bd 77 e8 70 3e
       0.23076211 0.102268815 -0.077248774 0.23526178
0002f0 81 95 96 be f4 3e 81 be 1b 8a 30 3e f5 b4 75 bd
       -0.29410937 -0.25243342 0.17240183 -0.059987027
000300 f9 62 ae bd ad 0e 9b bc 0f 9d 7b bd 15 b4 38 bd
       -0.08514971 -0.018927896 -0.06142908 -0.045093615
000310 8f 72 0f bd 0b 55 e1 bc 87 09 19 3e 71 e4 ba 3d
       -0.03502136 -0.027506372 0.1494504 0.09125603
000320 d3 3f 0c bd 40 7d bb 3b 36 72 12 3e 43 a2 96 be
       -0.034240555 0.005721718 0.1430138 -0.2942067
000330 bb a5 80 be 0e f2 92 3d 8c 42 6e be 4c 67 20 bd
       -0.25126442 0.071750745 -0.23267573 -0.03916101
000340 07 d3 07 be 06 cc 4d bd 6f 9d 66 3d c6 e0 2f be
       -0.13264094 -0.0502434 0.056302484 -0.17175588
000350 07 7c 97 bd f2 19 81 bc 1f 7a 64 3e 16 be 71 3e
       -0.07396703 -0.015759442 0.2231221 0.23607668
000360 85 6d ff bd 65 57 b4 3d 0c 44 76 bc ef e6 00 be
       -0.12472061 0.08805732 -0.015030872 -0.12588094
000370 51 fa b6 bd 7f 5f 3e be 05 4d 69 be 60 83 b9 bc
       -0.08934463 -0.18591116 -0.22783287 -0.022645652
000380 14 ff 56 be fe 96 f0 be 3a f0 2d 3e 91 46 00 3e
       -0.20995742 -0.46990198 0.1698617 0.12526919
000390 ac 47 00 3c 92 f4 28 be 89 a2 1b 3e ab c6 52 bb
       0.007829588 -0.16499546 0.15198721 -0.0032161872
0003a0 40 e5 23 3d 81 f8 18 bd 72 cf 43 bd f3 3e 30 3e
       0.04001355 -0.037346367 -0.047805257 0.17211513
0003b0 31 24 e9 3d c8 41 08 3d 5a bb 8b 3d 2a cd 28 3e
       0.11383856 0.03326586 0.06822844 0.16484514
0003c0 95 3e 94 bd e1 f5 9c be e3 cf 21 bd 7d 47 eb 3b
       -0.07238499 -0.3065634 -0.039504897 0.007180153
0003d0 73 c1 85 3d 87 7c cb 3d 10 f3 ed bd 22 9c 11 3e
       0.06531038 0.09935861 -0.11618626 0.14219716
0003e0 04 3a 5b 3d 2d c7 95 bd 7c a0 a0 3d e3 54 0b be
       0.053522125 -0.073133804 0.0784311 -0.136066
0003f0 42 94 02 3e e0 82 69 3c 9a 70 df 3c 9a 64 2a bd
       0.12751868 0.014252394 0.027275372 -0.041599847

fc2.bias f4 [64]
000000 53 11 3e bc 9d 08 94 3c 9b c6 9a bd 3e ea 02 3e
       -0.01160081 0.018070513 -0.07557412 0.12784669
000010 f7 4b bc 3d 31 28 6b 3d 8f 89 ed 3d b1 f7 c5 3d
       0.09194177 0.057411376 0.11598503 0.09666384
000020 1a 65 2e 3d a7 01 a4 bd fe 81 c0 3d c0 4b 08 3e
       0.042576887 -0.08008128 0.09399794 0.13310146
000030 4f bb 09 3d c5 d4 82 bd d1 ec 5a 3d 43 64 02 3e
       0.033625897 -0.06388239 0.053448502 0.1273356
000040 e5 fa 65 bd 8e b7 e7 3d f0 d6 52 3e 3f 5e 98 3e
       -0.056147475 0.11314307 0.20589805 0.29759404
000050 51 b9 aa bc 38 52 a7 bc 08 bb cb bd 57 c9 45 3d
       -0.020840319 -0.020424947 -0.09947783 0.048287716
000060 f5 9f 78 3d 15 e0 5c 3e 62 3f 28 3d af eb c0 bb
       0.060699422 0.21569856 0.04107607 -0.0058874707
000070 6b b8 ab bb ce 35 4e bd 55 70 cf 3d 9c c5 cc 3d
       -0.00524049 -0.05034428 0.101288475 0.099986285
000080 1d 03 5f 3d 3a c0 60 3e 7b 41 a4 3e dd 41 82 3d
       0.05444633 0.21948329 0.32081208 0.06360219
000090 fc 3b 0c 3e 14 bb 5e bc 0d 01 9e bd c4 42 7d bd
       0.13694757 -0.013594408 -0.07715044 -0.06183125
0000a0 38 0b b8 3e 6f 86 26 be bc 9c cb 3d 66 33 3f 3e
       0.3594606 -0.1626222 0.09942004 0.1867195
0000b0 67 9c ea 3c d8 95 1e bd 7a 47 97 3e 0c 4b 5e 3e
       0.028639032 -0.03871712 0.2954672 0.21708316
0000c0 f0 8c 28 bc e4 0b ba 3d 15 fb 54 bb 6d 81 9a 3e
       -0.010287508 0.09084299 -0.003249829 0.3017687
0000d0 22 6d 0f 3e a1 98 e5 3d 5e 76 ed 3d 9a e3 19 be
       0.14006475 0.11210752 0.115948424 -0.1502823
0000e0 e0 d8 bc 3e d1 d4 13 bd ba 5a 18 3e 57 0b 06 3a
       0.36884212 -0.03609163 0.1487836 0.0005113384
0000f0 69 e2 fa 3d 96 82 76 3e b4 d7 fc bc b8 9e a2 3e
       0.122502156 0.24073252 -0.030864574 0.31761718

fc3.weight f4 [4, 64]
000000 fb 89 33 bd 9b 31 eb be 74 1f 2b 3d ed bf 97 3d
       -0.04383276 -0.45936283 0.041778043 0.07409654
000010 ae 1a c6 be 61 61 cf 3e 15 5b f8 bc c6 8a aa 3d
       -0.3869223 0.40503982 -0.030316869 0.0832725
000020 ad 32 39 be 92 8f 82 bc 19 7c be 3d 80 0a 0c 3e
       -0.18085738 -0.0159376 0.093010135 0.1367588
000030 9a d9 bb bd ad 81 b7 3e 2f 92 fa 3b 21 d6 97 3d
       -0.091723636 0.35841122 0.007646821 0.07413889
000040 58 20 8c bd 4b dd 17 3e d0 2e 02 3e 69 d3 20 3e
       -0.068421066 0.1483051 0.1271317 0.15705647
000050 0c 18 9f 3e 95 d9 23 3e 37 2f 3a be b5 77 47 be
       0.31073034 0.1600097 -0.18182074 -0.19479258
000060 c6 ea 04 3f 06 a2 c4 3d 28 8e a9 3b 51 0c 91 bc
       0.51920736 0.09601216 0.005174417 -0.017706068
000070 02 bd d2 3e 6c e4 75 bd e3 f3 7d 3e 79 d0 af bd
       0.41159827 -0.060032293 0.24800067 -0.08584685
000080 1e 98 49 be 2d 20 aa 3d da ad e0 3d 14 a9 36 be
       -0.19686934 0.08306918 0.109706596 -0.17837936
000090 cd 98 03 3e 96 f7 19 be e7 93 86 be c5 c9 67 3d
       0.12851258 -0.15035853 -0.26284716 0.056588907
0000a0 61 94 07 3e 2c 5e c2 bd a7 ba 07 bf 3c 5e 4a 3e
       0.13240196 -0.09490618 -0.53019184 0.1976251
0000b0 f1 24 4b 3e b2 94 5e 3e d7 83 35 3e 7f 28 d2 3d
       0.19838311 0.2173641 0.17726074 0.1026163
0000c0 5b ff 4d 3e a4 a0 b6 bd 8d 40 61 be ae d7 02 3e
       0.20116942 -0.089173585 -0.2199728 0.12777588
0000d0 34 5c 06 3d 02 58 b0 3d 18 db 15 3e aa 4d d4 bd
       0.032802776 0.08610536 0.14634359 -0.10366376
0000e0 5f c1 4d 3e 82 38 6a 3e d6 bf eb 3d 63 bb e9 bd
       0.20093296 0.22873119 0.11511199 -0.11412694
0000f0 4e c7 af 3d 39 44 6c 3e 72 52 42 3e 03 11 3f 3e
       0.08582936 0.230729 0.18976763 0.18658833
000100 cd 0e 37 3e 10 b6 c0 3d 1e 50 f6 bd 35 85 bc bd
       0.1787674 0.09409726 -0.12027 -0.09205095
000110 95 8c 50 3a 38 68 ae 3e 35 e5 fe bd d0 9b c9 3b
       0.00079555187 0.34063888 -0.124460615 0.0061526075
000120 58 5c 5d bc 25 e0 38 bd f3 ad 20 3e 9e 60 9e 3d
       -0.013510786 -0.045135636 0.15691356 0.07733272
000130 33 a5 af be 24 86 58 3e f3 89 98 3b 3d 44 53 3e
       -0.34305725 0.2114492 0.0046551167 0.206315
000140 10 0b 15 be 56 8b 74 3e 55 db b9 3d 59 0d 45 3e
       -0.14555001 0.23881277 0.090750374 0.19243373
000150 0b 60 0a 3e 9c 21 e9 b9 23 01 3d bd 83 e0 a7 bd
       0.135132 -0.00044466264 -0.046143662 -0.08197119
000160 fd d2 12 3e 45 18 59 3d 8a d0 4b 3d 9b 3d d0 3d
       0.14338298 0.05300166 0.049759425 0.10168
000170 40 41 01 3e a8 b9 ab 3c 96 06 e4 bb 7d f3 0f 3e
       0.12622547 0.020962551 -0.006958793 0.14057727
000180 7e 70 a6 3c 7d 54 34 3e 6b d7 19 3e 7c 06 25 be
       0.020317312 0.17610355 0.15023582 -0.16115755
000190 76 30 95 3d 51 8b 7f be 93 cb 39 3d 36 ac 3e 3e
       0.07284634 -0.24955489 0.04536016 0.18620381
0001a0 84 12 df 3d a4 45 34 3d f1 3e 32 3c ad cb 61 3e
       0.108922035 0.044011727 0.010879264 0.22050352
0001b0 82 27 76 bd ef ac 1a bd 0f 29 f7 3d 93 73 30 3d
       -0.06009627 -0.03776258 0.12068378 0.04307897
0001c0 11 b0 44 3e a5 57 a6 bd f4 83 b8 bd 83 d2 44 3e
       0.19207789 -0.081221856 -0.09009543 0.19220929
0001d0 c5 cb b6 3d d8 b4 f1 3d 26 72 ab 3c de c7 82 be
       0.08925585 0.11802071 0.020928454 -0.25543112
0001e0 7a e9 8d 3d 02 b5 2c 3e c6 f1 09 3e 3c d4 dd 3d
       0.06929298 0.16865924 0.13471135 0.10831496
0001f0 2a 49 e1 3d d8 b0 45 3e b8 ce b2 be 05 44 8c 3e
       0.11000283 0.19305742 -0.3492334 0.27395645
000200 9a fb 9b bd a6 53 57 3e b2 b0 53 be fb 9b 81 be
       -0.076163486 0.21028003 -0.20672873 -0.25314316
000210 dc 65 36 be 4a 8d a7 3b 3f bf 3c 3e 81 0a 3b 3e
       -0.17812294 0.0051132785 0.1843233 0.18265726
000220 54 18 a6 3d 4d f9 ab bd 80 07 f5 3d 9a 9d 86 3e
       0.08110109 -0.0839716 0.11964321 0.26292115
000230 e1 da 09 3e c6 17 53 bd b0 c3 a4 be 67 cf 20 3e
       0.13462402 -0.051536344 -0.32180548 0.15704118
000240 f1 ca 27 3e 79 e8 10 3d 39 42 55 3e 4d e8 c9 3d
       0.1638601 0.035377953 0.20826043 0.09858761
000250 16 7a df 3e af b0 1e be 1e cb de bc 37 14 8e bd
       0.43647832 -0.15497087 -0.027196463 -0.069374494
000260 03 d0 ed 3b 1d e4 9e 3d 37 cd 70 3e ec ff 6b 3e
       0.007257463 0.07758353 0.23515783 0.23046845
000270 c8 be a4 3e 88 f1 46 bd a2 62 bd be 17 4f e1 3c
       0.32176805 -0.048570186 -0.36989313 0.027503533
000280 25 ab a4 be 92 0f 1d 3e e7 97 2e 3e a6 3c b1 3d
       -0.32161823 0.15337971 0.17050134 0.08654146
000290 c2 23 2c 3e 15 b9 2a bd b1 1d aa 3c fc 01 e5 bc
       0.16810516 -0.041680414 0.020766111 -0.027955048
0002a0 c2 17 c1 3d d6 13 01 3e 35 90 f9 be ec 1b 0e 3e
       0.094283596 0.12605223 -0.48742834 0.13877839
0002b0 16 b9 0e 3e ea f7 0c be fa dc bf 3d a7 a4 32 3e
       0.13937792 -0.13766447 0.0936832 0.17445622
0002c0 e3 d7 30 3e f2 12 0b 3e 61 16 83 be df f3 56 3e
       0.17269854 0.13581446 -0.2560301 0.20991467
0002d0 11 c0 ae ba e2 05 97 bd b6 6c d9 3d 8b 12 28 3c
       -0.0013332387 -0.07374169 0.10616438 0.010258327
0002e0 6b 35 35 3e d4 ab a5 3c da 18 85 3c ff 6a 16 bf
       0.17696159 0.020223536 0.016247202 -0.58757013
0002f0 22 a5 1c 3e 55 1b d0 3d 6c e8 03 3e c3 15 6d 3e
       0.15297368 0.10161463 0.1288163 0.23152833
000300 51 f4 8e be d7 9c 81 3d ea 12 30 be 2a 7a 4b 3e
       -0.27920774 0.06328743 -0.17194715 0.1987082
000310 cf 3d 72 be ba 5a 56 3e 98 7e ae be 25 05 9a 3d
       -0.2365639 0.20933047 -0.34080958 0.075205125
000320 0a dd ed 3d 85 60 92 3e 40 38 be 3b 0f 09 b5 3a
       0.116144255 0.28589264 0.0058050454 0.0013811904
000330 21 e8 ae bc 09 14 97 3e eb 3d a4 bc 3b 00 29 3d
       -0.021350922 0.29507473 -0.020049056 0.041259985
000340 f6 44 77 bd 47 71 34 3e a6 a9 e6 3d 2c 5a 21 3e
       -0.0603685 0.17621337 0.112628266 0.15757054
000350 8f b9 4d 3e 06 3e 82 be 17 ec 7a be 51 6a 39 be
       0.20090316 -0.25437945 -0.24504124 -0.18106963
000360 3b 03 ef 3e ed b8 10 3e 75 17 99 bd 47 1f 22 be
       0.46682152 0.14133044 -0.07475177 -0.15832244
000370 24 d9 5a 3e 67 7c d0 3d 68 56 c8 bd a9 01 d5 3d
       0.21371895 0.10179978 -0.09782106 0.10400707
000380 e5 45 05 be 75 a6 ea 3b 40 f6 06 3e 9c 49 a5 bc
       -0.13014944 0.0071609565 0.13179874 -0.020176701
000390 16 a2 74 3d c4 2a 50 be 1d d9 35 be 0e 17 a3 be
       0.05972489 -0.20328814 -0.17758603 -0.31853527
0003a0 7e 07 5d 3e e8 6d 8a bd 4f 37 a9 be 7d c3 74 3e
       0.2158489 -0.06759244 -0.3305001 0.23902698
0003b0 a9 d0 05 3e 60 e8 da 3a 42 95 1a 3e 2e 61 fd 3d
       0.13067879 0.0016701333 0.15096 0.12372051
0003c0 d9 50 31 3e 52 36 e5 bb b7 e9 1d bb f2 af 48 3e
       0.17315997 -0.006995001 -0.0024095604 0.19598368
0003d0 cc 6f 29 3e 66 8f 4e 3e be fa 5f ba cd d2 84 3d
       0.16546553 0.2017189 -0.00085441384 0.064855196
0003e0 29 32 1a 3e 2a 3d 25 bd 3a 08 17 3e ac a8 06 3e
       0.15058197 -0.040341534 0.14749232 0.1315028
0003f0 59 ef 5c 3e e3 5e 3e 3e da 07 84 3e 96 08 89 3e
       0.21575679 0.18590884 0.2578724 0.26764363

fc3.bias f4 [4]
000000 bb ee a2 3e bc be 10 3e 4d 6e c4 3d 11 01 96 3e
       0.31822762 0.1413526 0.09591351 0.2929769
